…
d be set to `rate = 1 - keep_prob`.\n","WARNING:tensorflow:From /usr/local/lib/python3.6/dist-packages/keras/backend/tensorflow_backend.py:1210: calling reduce_prod_v1 (from tensorflow.python.ops.math_ops) with keep_dims is deprecated and will be removed in a future version.\n","Instructions for updating:\n","keep_dims is deprecated, use keepdims instead\n","_________________________________________________________________\n","Layer (type)                 Output Shape              Param #   \n","=================================================================\n","conv2d_1 (Conv2D)            (None, 32, 32, 16)        448       \n","_________________________________________________________________\n","leaky_re_lu_1 (LeakyReLU)    (None, 32, 32, 16)        0         \n","_________________________________________________________________\n","conv2d_2 (Conv2D)            (None, 32, 32, 32)        4640      \n","_________________________________________________________________\n","leaky_re_lu_2 (LeakyReLU)    (None, 32, 32, 32)        0         \n","_________________________________________________________________\n","max_pooling2d_1 (MaxPooling2 (None, 16, 16, 32)        0         \n","_________________________________________________________________\n","dropout_1 (Dropout)          (None, 16, 16, 32)        0         \n","_________________________________________________________________\n","conv2d_3 (Conv2D)            (None, 16, 16, 32)        9248      \n","_________________________________________________________________\n","leaky_re_lu_3 (LeakyReLU)    (None, 16, 16, 32)        0         \n","_________________________________________________________________\n","conv2d_4 (Conv2D)            (None, 16, 16, 64)        18496     \n","_________________________________________________________________\n","leaky_re_lu_4 (LeakyReLU)    (None, 16, 16, 64)        0         \n","_________________________________________________________________\n","max_pooling2d_2 (MaxPooling2 (None, 8, 8, 64)          0         \n","_________________________________________________________________\n","dropout_2 (Dropout)          (None, 8, 8, 64)          0         \n","_________________________________________________________________\n","flatten_1 (Flatten)          (None, 4096)              0         \n","_________________________________________________________________\n","dense_1 (Dense)              (None, 256)               1048832   \n","_________________________________________________________________\n","leaky_re_lu_5 (LeakyReLU)    (None, 256)               0         \n","_________________________________________________________________\n","dropout_3 (Dropout)          (None, 256)               0         \n","_________________________________________________________________\n","dense_2 (Dense)              (None, 10)                2570      \n","_________________________________________________________________\n","activation_1 (Activation)    (None, 10)                0         \n","=================================================================\n","Total params: 1,084,234\n","Trainable params: 1,084,234\n","Non-trainable params: 0\n","_________________________________________________________________\n"],"name":"stdout"}]},{"cell_type":"code","metadata":{"id":"W5tLFvl7DqG2","executionInfo":{"status":"ok","timestamp":1610800478621,"user_tz":-180,"elapsed":916,"
…
