…
a79e-3d72ce097e6b"},"source":["# Look at encoder and decoder shapes.\n","# Total number of trainable parameters of encoder and decoder should be close.\n","s = reset_tf_session()\n","encoder, decoder = build_deep_autoencoder(IMG_SHAPE, code_size=32)\n","encoder.summary()\n","decoder.summary()"],"execution_count":36,"outputs":[{"output_type":"stream","text":["_________________________________________________________________\n","Layer (type)                 Output Shape              Param #   \n","=================================================================\n","input_1 (InputLayer)         (None, 32, 32, 3)         0         \n","_________________________________________________________________\n","conv2d_1 (Conv2D)            (None, 32, 32, 32)        896       \n","_________________________________________________________________\n","max_pooling2d_1 (MaxPooling2 (None, 16, 16, 32)        0         \n","_________________________________________________________________\n","conv2d_2 (Conv2D)            (None, 16, 16, 64)        18496     \n","_________________________________________________________________\n","max_pooling2d_2 (MaxPooling2 (None, 8, 8, 64)          0         \n","_________________________________________________________________\n","conv2d_3 (Conv2D)            (None, 8, 8, 128)         73856     \n","_________________________________________________________________\n","max_pooling2d_3 (MaxPooling2 (None, 4, 4, 128)         0         \n","_________________________________________________________________\n","conv2d_4 (Conv2D)            (None, 4, 4, 256)         295168    \n","_________________________________________________________________\n","max_pooling2d_4 (MaxPooling2 (None, 2, 2, 256)         0         \n","_________________________________________________________________\n","flatten_1 (Flatten)          (None, 1024)              0         \n","_________________________________________________________________\n","dense_1 (Dense)              (None, 32)                32800     \n","=================================================================\n","Total params: 421,216\n","Trainable params: 421,216\n","Non-trainable params: 0\n","_________________________________________________________________\n","_________________________________________________________________\n","Layer (type)                 Output Shape              Param #   \n","=================================================================\n","input_2 (InputLayer)         (None, 32)                0         \n","_________________________________________________________________\n","dense_2 (Dense)              (None, 1024)              33792     \n","_________________________________________________________________\n","reshape_1 (Reshape)          (None, 2, 2, 256)         0         \n","_________________________________________________________________\n","conv2d_transpose_1 (Conv2DTr (None, 4, 4, 128)         295040    \n","_________________________________________________________________\n","conv2d_transpose_2 (Conv2DTr (None, 8, 8, 64)          73792     \n","_________________________________________________________________\n","conv2d_transpose_3 (Conv2DTr (None, 16, 16, 32)        18464     \n","_________________________________________________________________\n","conv2d_transpose_4 (Conv2DTr (None, 32, 32, 3)         867       \n","=================================================================\n","Total params: 421,955\n","Trainable params: 421,955\n","Non-trainable params: 0\n","_________________________________________________________________\n"],"name":"stdout"}]},{"cell_type":"markdown","metadata":{"id":"qGkfa18NF3yf"},"source":["Convolutional autoencoder training. This will take **1 hour**. You're aiming 
…
